26022024_BS_1_W2_Test_for_Voltage_Driven/26022024_BS_1_W2_Test_for_Voltage_Driven_voltage_from_0_to_8e-6V_flipped/26022024_BS_1_W2_Test_for_Voltage_Driven_voltage_from_0_to_8e-6V_flipped-20240226131233.npz (npz, 7209 bytes, 7 tensors)

temperature f8 [98]
00000000: 2e86 3524 502f 5340 0427 2ae6 442f 5340
00000010: 2a68 ab59 572f 5340 dd1a c242 542f 5340
00000020: 98fa 1e3b 532f 5340 ea37 654a 552f 5340
00000030: ac51 0852 562f 5340 5abd a805 4c2f 5340
00000040: ef39 564b 582f 5340 4c28 ef14 4e2f 5340
00000050: cdf4 aac6 3d2f 5340 0083 05fe 4a2f 5340
00000060: 044a b704 492f 5340 decf 9cc7 402f 5340
00000070: dd1a c242 542f 5340 98fa 1e3b 532f 5340
00000080: acd7 8380 8d2f 5340 dd1a c242 542f 5340
00000090: f981 e3d6 422f 5340 a48a 5a0c 4a2f 5340
000000a0: 70f4 4b0d 4d2f 5340 044a b704 492f 5340
000000b0: decf 9cc7 402f 5340 70f4 4b0d 4d2f 5340
000000c0: a48a 5a0c 4a2f 5340 0dbf 70f5 462f 5340
000000d0: 70f4 4b0d 4d2f 5340 104c 234a 832f 5340
000000e0: ae74 cded 452f 5340 5abd a805 4c2f 5340
000000f0: 833f 2688 8e2f 5340 5abd a805 4c2f 5340
00000100: 20d6 86de 432f 5340 0427 2ae6 442f 5340
00000110: 044a b704 492f 5340 c210 56b8 3e2f 5340
00000120: 0427 2ae6 442f 5340 98fa 1e3b 532f 5340
00000130: 3159 ad68 872f 5340 dd1a c242 542f 5340
00000140: ea37 654a 552f 5340 20d6 86de 432f 5340
00000150: 0083 05fe 4a2f 5340 98fa 1e3b 532f 5340
00000160: de58 921c 4f2f 5340 de58 921c 4f2f 5340
00000170: 3cb0 d82b 512f 5340 3cb0 d82b 512f 5340
00000180: de58 921c 4f2f 5340 8a25 aa9e bf2f 5340
00000190: 3557 9c5a 5a2f 5340 044a b704 492f 5340
000001a0: f981 e3d6 422f 5340 a48a 5a0c 4a2f 5340
000001b0: cdf4 aac6 3d2f 5340 decf 9cc7 402f 5340
000001c0: cdf4 aac6 3d2f 5340 7fdc eb81 342f 5340
000001d0: cdf4 aac6 3d2f 5340 fdce 79a0 382f 5340
000001e0: eb08 39c5 962f 5340 20d6 86de 432f 5340
000001f0: decf 9cc7 402f 5340 0dbf 70f5 462f 5340
00000200: c210 56b8 3e2f 5340 cea9 ee39 7e2f 5340
00000210: 0fd7 7b33 522f 5340 7543 1da8 392f 5340
00000220: 558d 07bf 3c2f 5340 2125 7c04 772f 5340
00000230: a522 64b7 3b2f 5340 c210 56b8 3e2f 5340
00000240: f981 e3d6 422f 5340 005e 8f89 352f 5340
00000250: a522 64b7 3b2f 5340 f271 f9bf 3f2f 5340
00000260: 0083 05fe 4a2f 5340 c210 56b8 3e2f 5340
00000270: decf 9cc7 402f 5340 fdce 79a0 382f 5340
00000280: b2b4 c0af 3a2f 5340 c210 56b8 3e2f 5340
00000290: b7cf a472 322f 5340 48dc 3291 362f 5340
000002a0: fdce 79a0 382f 5340 fdce 79a0 382f 5340
000002b0: c210 56b8 3e2f 5340 1dd1 a498 652f 5340
000002c0: ae74 cded 452f 5340 2a06 14fd 472f 5340
000002d0: f981 e3d6 422f 5340 c210 56b8 3e2f 5340
000002e0: 2e86 3524 502f 5340 de58 921c 4f2f 5340
000002f0: ae74 cded 452f 5340 f271 f9bf 3f2f 5340
00000300: ef39 564b 582f 5340 2e86 3524 502f 5340
76.73926644541709 76.73858026615568 76.7397064374824 76.73951786952553 76.73945501351625 76.7395807255231 76.73964358150869 76.73901502111895
76.73976405544794 76.73914073329178 76.73814551062533 76.73895216501478 76.73883169078186 76.73832884133978 76.73951786952553 76.73945501351625
76.74301159739724 76.73951786952553 76.73845455377149 76.73889454690885 76.73907787721123 76.73883169078186 76.73832884133978 76.73907787721123
76.73889454690885 76.73870597849255 76.73907787721123 76.74238828131661 76.7386431223301 76.73901502111895 76.74307445273557 76.73901502111895
76.73851740996952 76.73858026615568 76.73883169078186 76.73820312886076 76.73858026615568 76.73945501351625 76.74263970306926 76.73951786952553
76.7395807255231 76.73851740996952 76.73895216501478 76.73945501351625 76.73920358936036 76.73920358936036 76.73932930146196 76.73932930146196
76.73920358936036 76.74607054344065 76.7398897673382 76.73883169078186 76.73845455377149 76.73889454690885 76.73814551062533 76.73832884133978
76.73814551062533 76.73757980378467 76.73814551062533 76.7378312291657 76.74357729501541 76.73851740996952 76.73832884133978 76.73870597849255
76.73820312886076 76.74207924181903 76.73939215749509 76.7378940854813 76.73808265435703 76.74163925288714 76.73801979807702 76.73820312886076
76.73845455377149 76.73764266014769 76.73801979807702 76.73826598510621 76.73895216501478 76.73820312886076 76.73832884133978 76.7378312291657
76.73795694178514 76.73820312886076 76.73745409102308 76.73770551649898 76.7378312291657 76.7378312291657 76.73820312886076 76.74057594390293
76.7386431223301 76.73876883464314 76.73845455377149 76.73820312886076 76.73926644541709 76.73920358936036 76.7386431223301 76.73826598510621
76.73976405544794 76.73926644541709

voltage f8 [98]
00000000: 0000 0000 0000 0000 4a65 e8d1 c0e9 853e
00000010: 4a65 e8d1 c0e9 953e f84b 6e9d 506f a03e
00000020: 4a65 e8d1 c0e9 a53e 9c7e 6206 3164 ab3e
00000030: f84b 6e9d 506f b03e a158 abb7 882c b33e
00000040: 4a65 e8d1 c0e9 b53e f371 25ec f8a6 b83e
00000050: 9c7e 6206 3164 bb3e 468b 9f20 6921 be3e
00000060: f84b 6e9d 506f c03e 4cd2 8caa eccd c13e
00000070: a158 abb7 882c c33e f5de c9c4 248b c43e
00000080: 4a65 e8d1 c0e9 c53e 9feb 06df 5c48 c73e
00000090: f371 25ec f8a6 c83e 48f8 43f9 9405 ca3e
000000a0: 9c7e 6206 3164 cb3e f104 8113 cdc2 cc3e
000000b0: 468b 9f20 6921 ce3e 9a11 be2d 0580 cf3e
000000c0: f84b 6e9d 506f d03e 228f fda3 9e1e d13e
000000d0: 4cd2 8caa eccd d13e 7615 1cb1 3a7d d23e
000000e0: a158 abb7 882c d33e cb9b 3abe d6db d33e
000000f0: f5de c9c4 248b d43e 2022 59cb 723a d53e
00000100: 4a65 e8d1 c0e9 d53e 74a8 77d8 0e99 d63e
00000110: 9feb 06df 5c48 d73e c92e 96e5 aaf7 d73e
00000120: f371 25ec f8a6 d83e 1eb5 b4f2 4656 d93e
00000130: 48f8 43f9 9405 da3e 723b d3ff e2b4 da3e
00000140: 9c7e 6206 3164 db3e c7c1 f10c 7f13 dc3e
00000150: f104 8113 cdc2 dc3e 1b48 101a 1b72 dd3e
00000160: 468b 9f20 6921 de3e 70ce 2e27 b7d0 de3e
00000170: 9a11 be2d 0580 df3e 62aa 269a a917 e03e
00000180: f84b 6e9d 506f e03e 8ded b5a0 f7c6 e03e
00000190: 8ded b5a0 f7c6 e03e f84b 6e9d 506f e03e
000001a0: 62aa 269a a917 e03e 9a11 be2d 0580 df3e
000001b0: 70ce 2e27 b7d0 de3e 468b 9f20 6921 de3e
000001c0: 1b48 101a 1b72 dd3e f104 8113 cdc2 dc3e
000001d0: c7c1 f10c 7f13 dc3e 9c7e 6206 3164 db3e
000001e0: 723b d3ff e2b4 da3e 48f8 43f9 9405 da3e
000001f0: 1eb5 b4f2 4656 d93e f371 25ec f8a6 d83e
00000200: c92e 96e5 aaf7 d73e 9feb 06df 5c48 d73e
00000210: 74a8 77d8 0e99 d63e 4a65 e8d1 c0e9 d53e
00000220: 2022 59cb 723a d53e f5de c9c4 248b d43e
00000230: cb9b 3abe d6db d33e a158 abb7 882c d33e
00000240: 7615 1cb1 3a7d d23e 4cd2 8caa eccd d13e
00000250: 9a11 be2d 0580 cf3e 468b 9f20 6921 ce3e
00000260: f104 8113 cdc2 cc3e 9c7e 6206 3164 cb3e
00000270: 48f8 43f9 9405 ca3e f371 25ec f8a6 c83e
00000280: 9feb 06df 5c48 c73e 4a65 e8d1 c0e9 c53e
00000290: f5de c9c4 248b c43e a158 abb7 882c c33e
000002a0: 4cd2 8caa eccd c13e f84b 6e9d 506f c03e
000002b0: 468b 9f20 6921 be3e 9c7e 6206 3164 bb3e
000002c0: f371 25ec f8a6 b83e 4a65 e8d1 c0e9 b53e
000002d0: a158 abb7 882c b33e f84b 6e9d 506f b03e
000002e0: 9c7e 6206 3164 ab3e 4a65 e8d1 c0e9 a53e
000002f0: f84b 6e9d 506f a03e 4a65 e8d1 c0e9 953e
00000300: 4a65 e8d1 c0e9 853e 0000 0000 0000 0000
0.0 1.6326530612244896e-07 3.265306122448979e-07 4.897959183673469e-07 6.530612244897958e-07 8.163265306122447e-07 9.795918367346939e-07 1.1428571428571428e-06
1.3061224489795917e-06 1.4693877551020406e-06 1.6326530612244895e-06 1.7959183673469386e-06 1.9591836734693877e-06 2.1224489795918364e-06 2.2857142857142856e-06 2.4489795918367342e-06
2.6122448979591834e-06 2.7755102040816325e-06 2.938775510204081e-06 3.1020408163265303e-06 3.265306122448979e-06 3.428571428571428e-06 3.5918367346938772e-06 3.755102040816326e-06
3.9183673469387755e-06 4.081632653061224e-06 4.244897959183673e-06 4.4081632653061216e-06 4.571428571428571e-06 4.73469387755102e-06 4.8979591836734685e-06 5.061224489795918e-06
5.224489795918367e-06 5.3877551020408154e-06 5.551020408163265e-06 5.714285714285714e-06 5.877551020408162e-06 6.040816326530612e-06 6.204081632653061e-06 6.367346938775509e-06
6.530612244897958e-06 6.6938775510204075e-06 6.857142857142856e-06 7.020408163265305e-06 7.1836734693877545e-06 7.346938775510203e-06 7.510204081632652e-06 7.6734693877551e-06
7.836734693877551e-06 8e-06 8e-06 7.836734693877551e-06 7.6734693877551e-06 7.510204081632652e-06 7.346938775510203e-06 7.1836734693877545e-06
7.020408163265305e-06 6.857142857142856e-06 6.6938775510204075e-06 6.530612244897958e-06 6.367346938775509e-06 6.204081632653061e-06 6.040816326530612e-06 5.877551020408162e-06
5.714285714285714e-06 5.551020408163265e-06 5.3877551020408154e-06 5.224489795918367e-06 5.061224489795918e-06 4.8979591836734685e-06 4.73469387755102e-06 4.571428571428571e-06
4.4081632653061216e-06 4.244897959183673e-06 3.755102040816326e-06 3.5918367346938772e-06 3.428571428571428e-06 3.265306122448979e-06 3.1020408163265303e-06 2.938775510204081e-06
2.7755102040816325e-06 2.6122448979591834e-06 2.4489795918367342e-06 2.2857142857142856e-06 2.1224489795918364e-06 1.9591836734693877e-06 1.7959183673469386e-06 1.6326530612244895e-06
1.4693877551020406e-06 1.3061224489795917e-06 1.1428571428571428e-06 9.795918367346939e-07 8.163265306122447e-07 6.530612244897958e-07 4.897959183673469e-07 3.265306122448979e-07
1.6326530612244896e-07 0.0

resistance f8 [98]
00000000: 0000 0000 0000 0080 7e65 0606 dd68 a2bf
00000010: 0afe db64 2abb b2bf 1eda c80b 5be5 bbbf
00000020: 911a ea89 b3c0 c2bf b86b a708 b95e c7bf
00000030: 8aca a085 2712 ccbf e397 25eb e867 d0bf
00000040: 36d4 f523 08c6 d2bf fc35 d8a9 9215 d5bf
00000050: 2f95 5cec d529 d7bf a56c 3150 5c74 d9bf
00000060: fb03 1121 69b8 dbbf fe4d 8634 54de ddbf
00000070: 220c 0e7c 4b76 e0bf adfa 9d73 ca58 e1bf
00000080: 5435 479e 5d06 e3bf 4ae0 c989 8a2f e4bf
00000090: de22 a9f6 8777 e5bf 9023 20e5 d197 e6bf
000000a0: fb05 7a2a dca7 e7bf db67 48ff 6ee6 e8bf
000000b0: 97df 9c37 fe09 eabf 10d0 62cb 7628 ebbf
000000c0: c4c4 ba08 d58c ecbf e9a3 e355 f9a5 edbf
000000d0: 2131 adae 5b8d eebf badf 27d4 b7bb efbf
000000e0: 1024 5c1c 9f66 f0bf 4a5f c46b b816 f1bf
000000f0: 4d94 993f 75a0 f1bf e6d1 b610 794f f2bf
00000100: ee68 d93e d3b3 f2bf 8970 af73 35a9 f3bf
00000110: 2c49 ebcb dd39 f4bf 875d 00f4 f987 f4bf
00000120: 5974 bd07 274e f5bf 146a 9c90 c3d6 f5bf
00000130: d6f5 5aa5 2362 f6bf dfcf 22d1 b8e8 f6bf
00000140: 291d 7c7a 345e f7bf 65f8 aee2 1a24 f8bf
00000150: ded1 effa 7ac4 f8bf 835f fdc2 5062 f9bf
00000160: 8786 ce3c 9cae f9bf 4ab5 518b 27b8 fabf
00000170: 2b77 a24e e36e fcbf 2e1a 854e 412e fdbf
00000180: baaa e1a8 8dc1 fdbf ce5d 8315 1698 febf
00000190: 3c45 2a12 716e febf 68e0 e613 ba09 febf
000001a0: d3e3 cf94 d859 fdbf 06cb 2498 8a47 fcbf
000001b0: 6d56 5b11 74a3 fabf 7fbb 755e 99e2 f9bf
000001c0: 66f8 d513 7226 f9bf 6517 2f45 6577 f8bf
000001d0: 2cb6 5487 cef7 f7bf d17f 99c5 a94f f7bf
000001e0: e8e6 49e9 9ad6 f6bf d6ab 6af3 c542 f6bf
000001f0: f3a4 cd53 b0c6 f5bf 1b42 6f62 3d24 f5bf
00000200: e0de 2cc5 b585 f4bf 83ee cb27 2a08 f4bf
00000210: 24f1 45d4 7858 f3bf af7b 545d 54c7 f2bf
00000220: e5ec a978 5c2a f2bf e181 0932 8998 f1bf
00000230: 6d30 9e5f 8bff f0bf 03dd e02c f878 f0bf
00000240: 0ac8 23ab 94e2 efbf a6fc 90bd 00ad eebf
00000250: 3e8b 32a1 18e3 eabf e8f0 08d8 f505 eabf
00000260: 0965 f241 d3fb e8bf ddb5 8fa0 e3b0 e7bf
00000270: 652c 17e5 d7a5 e6bf 9b77 f9bf 8557 e5bf
00000280: 0bfa 7bf1 6203 e4bf cabc 10ff 77da e2bf
00000290: c6a8 cf2b 1631 e1bf ba04 e17e 46e9 dfbf
000002a0: 75a3 dff0 af00 debf 4c27 e212 82aa dbbf
000002b0: 1950 9c2f a522 d9bf 1fcf 206e 81ce d6bf
000002c0: 7c3d 3341 7ba0 d4bf 9c1d b3ae b232 d2bf
000002d0: cb0d 71c2 e4bb cfbf a2bd 255d cf54 cbbf
000002e0: b4c3 edca 47f2 c6bf 7a0d eb93 7281 c2bf
000002f0: 8549 0f19 14a9 bbbf c39c 2472 9f4b b2bf
00000300: a2ba c2de 2558 a2bf 0000 0000 0000 0080
-0.0 -0.03595629404589838 -0.0731684204329143 -0.10896843946179799 -0.14650577768425824 -0.1825782100921438 -0.21930402779397112 -0.25634215320167025
-0.29333690177674343 -0.3294417055738845 -0.3619284446925403 -0.3977270873198882 -0.43313053349635283 -0.4666948807655159 -0.514440290732072 -0.5420887239595992
-0.5945270625467551 -0.6308033648665596 -0.670841199645192 -0.706032702933145 -0.7392407254812378 -0.7781290994637361 -0.813719853037571 -0.8486894581205906
-0.892191426324779 -0.9265104939960312 -0.9547556316042894 -0.9916648048083438 -1.025054083615263 -1.0680469712878726 -1.1016743168231813 -1.1444025662323098
-1.1689026312874904 -1.228810741325136 -1.2641275373067158 -1.2831973582559344 -1.3315801908822975 -1.3649325989596308 -1.39895977584762 -1.4318168801664723
-1.4604992661059646 -1.5088147024939869 -1.5479688455790135 -1.5865028015886942 -1.6051294684661188 -1.6699595873027016 -1.7770722457566517 -1.8237927500901026
-1.859754237836269 -1.9121304359776903 -1.9019633016180952 -1.8773747231880638 -1.8344350636455047 -1.767466158210199 -1.6649056127547752 -1.6178220453109302
-1.5718861365162637 -1.5291493132112575 -1.4979996954310861 -1.45694901645037 -1.4273938286627814 -1.3913020618881453 -1.3610080026213012 -1.3213476033307703
-1.2826440527114116 -1.2519933275752073 -1.2090996066973014 -1.1736644406989674 -1.1353420937946848 -1.0997402147842126 -1.0623887763095141 -1.029533553415434
-0.9964087812970785 -0.9586185171573518 -0.8402217052829213 -0.8132275790626666 -0.7807403839134689 -0.7403429161037668 -0.7077445482658616 -0.6669338941098774
-0.6254133907785343 -0.5891685468431203 -0.5372420173346419 -0.4986129988720439 -0.4687919475823528 -0.4322819885643312 -0.3927395787188757 -0.356354100749046
-0.3222950112076075 -0.28434435902132704 -0.24792155737132612 -0.21352569626058676 -0.17926881226187918 -0.1445754263169013 -0.10804868327912771 -0.0714664128941989
-0.0358287653374323 -0.0

current_source f8 [98]
00000000: 34ed 536c eb37 cdbe 8110 f01d 7f0b d3be
00000010: 62a0 3ac8 d0b7 d2be 3228 d1c2 4cda d2be
00000020: 8ee5 ab42 4ab2 d2be ce22 4e42 d0c0 d2be
00000030: d885 3c68 36bc d2be 5295 1f98 17b3 d2be
00000040: 73aa 9943 fbac d2be 8056 0e56 24b5 d2be
00000050: a27f b790 a1eb d2be 063c 5f8b 6ef0 d2be
00000060: caec 39fc ddf8 d2be a160 d5fd 3113 d3be
00000070: e510 9380 c0a2 d2be ea86 9d7f d0f2 d2be
00000080: a0ee 8a0b d46d d2be ca2d 0012 6c74 d2be
00000090: 733d 6b71 c65f d2be fa06 889e 9d6d d2be
000000a0: c36b db66 d586 d2be 42b8 a39c 177b d2be
000000b0: 3eb6 d431 9983 d2be 9eab 6ec3 dd8e d2be
000000c0: 4046 a46f b56b d2be af7f f62e 3e7a d2be
000000d0: 38df a1d7 eaa5 d2be b353 2665 03a5 d2be
000000e0: 88be 90a0 8fb4 d2be 5413 527b f097 d2be
000000f0: bf78 3802 c6a5 d2be cd72 ae8e b88c d2be
00000100: 773a 2d7f 29bf d2be 66fb 2be1 d963 d2be
00000110: 1ba8 a34a 006b d2be 2548 8fd9 8bad d2be
00000120: e2b3 a102 7683 d2be 8d60 5306 1690 d2be
00000130: 73ad 0a98 cf99 d2be 559b 1b0c f9a6 d2be
00000140: f05b 02a3 3ac1 d2be 5de5 b4ae ab9b d2be
00000150: 0e8d 285b 6d94 d2be bdee f5d3 658f d2be
00000160: d176 64c7 79c5 d2be c2e8 5061 e573 d2be
00000170: 389f 79f0 cfb9 d1be d65b 1ae7 afa5 d1be
00000180: 572c 7fa4 97ac d1be c8f2 6b4f 568c d1be
00000190: e99c 62f4 59a4 d1be 8a1f aa38 2082 d1be
000001a0: 0a24 6d68 7a8b d1be 7afc 289c 79d2 d1be
000001b0: db00 e55f 3c82 d2be cbff 0b44 c69f d2be
000001c0: fdcc 0b81 94bb d2be ad7d 5a26 f7ce d2be
000001d0: 9827 9505 10be d2be b984 d8b4 edcc d2be
000001e0: 4311 67dd c4b5 d2be 3ee5 b716 05b4 d2be
000001f0: b927 3d04 ca9d d2be c48d 0be3 29a8 d2be
00000200: 8bd1 eae3 9baf d2be 5bd2 05d2 b298 d2be
00000210: 8da4 449a 99b0 d2be 4da8 5edc b0ab d2be
00000220: 2d71 2319 9eb2 d2be d56a 6e47 2bae d2be
00000230: 66e2 5e59 4ab1 d2be f710 74e5 b99f d2be
00000240: b445 0ce1 498e d2be 122d 3621 ae92 d2be
00000250: 509b 1ad8 bebe d2be 7b87 1dab 7786 d2be
00000260: b2e2 74bc 446b d2be 96d2 fecd c57f d2be
00000270: 2611 e37d 3462 d2be 63fc 3c2f 557b d2be
00000280: 8ea8 c770 239d d2be 052b 4cb7 bc98 d2be
00000290: f02d 276c 931e d3be d13f c72e 303a d3be
000002a0: be19 1ae0 59fd d2be 684a 4ea0 6602 d3be
000002b0: b4f6 44de 002e d3be f2eb c70c 6637 d3be
000002c0: 061f f695 561f d3be 5793 0cbf 2e44 d3be
000002d0: b547 9441 af55 d3be 54f3 a95f 013e d3be
000002e0: c8b5 1468 7019 d3be 4cfc 372b 32f2 d2be
000002f0: 44ed b423 6203 d3be e202 195b ef29 d3be
00000300: 54c6 94b1 d91c d3be 6be3 bcd4 352f d3be
-3.483109e-06 -4.54066e-06 -4.462726e-06 -4.494842e-06 -4.45758e-06 -4.471106e-06 -4.466821e-06 -4.458327e-06
-4.452636e-06 -4.460236e-06 -4.510983e-06 -4.515454e-06 -4.52331e-06 -4.54783e-06 -4.443109e-06 -4.517673e-06
-4.39382e-06 -4.399961e-06 -4.380732e-06 -4.393622e-06 -4.417108e-06 -4.406173e-06 -4.414095e-06 -4.424589e-06
-4.391846e-06 -4.405382e-06 -4.446057e-06 -4.445215e-06 -4.459695e-06 -4.433039e-06 -4.445923e-06 -4.422591e-06
-4.469568e-06 -4.384528e-06 -4.391187e-06 -4.453162e-06 -4.413967e-06 -4.425725e-06 -4.434782e-06 -4.44704e-06
-4.471493e-06 -4.436514e-06 -4.429768e-06 -4.425084e-06 -4.475448e-06 -4.399471e-06 -4.226167e-06 -4.207424e-06
-4.213855e-06 -4.183815e-06 -4.20618e-06 -4.174305e-06 -4.183015e-06 -4.249136e-06 -4.412826e-06 -4.440336e-06
-4.466232e-06 -4.484286e-06 -4.468544e-06 -4.482389e-06 -4.46082e-06 -4.459191e-06 -4.438487e-06 -4.448149e-06
-4.455083e-06 -4.433746e-06 -4.456006e-06 -4.451434e-06 -4.457885e-06 -4.453742e-06 -4.456649e-06 -4.440291e-06
-4.424051e-06 -4.428141e-06 -4.46918e-06 -4.416767e-06 -4.391436e-06 -4.410532e-06 -4.382995e-06 -4.406397e-06
-4.437881e-06 -4.433782e-06 -4.558429e-06 -4.584145e-06 -4.527486e-06 -4.532189e-06 -4.572797e-06 -4.581547e-06
-4.559139e-06 -4.593453e-06 -4.609753e-06 -4.5877e-06 -4.553645e-06 -4.517097e-06 -4.533104e-06 -4.569008e-06
-4.556822e-06 -4.573921e-06

electric_field f8 [98]
00000000: 0000 0000 0000 0000 ca09 efe8 e27d c73e
00000010: ca09 efe8 e27d d73e 5847 b32e 6a9e e13e
00000020: ca09 efe8 e27d e73e 3ccc 2aa3 5b5d ed3e
00000030: 5847 b32e 6a9e f13e 9128 d18b 268e f43e
00000040: ca09 efe8 e27d f73e 03eb 0c46 9f6d fa3e
00000050: 3ccc 2aa3 5b5d fd3e bb56 2400 8c26 003f
00000060: 5847 b32e 6a9e 013f f437 425d 4816 033f
00000070: 9128 d18b 268e 043f 2d19 60ba 0406 063f
00000080: ca09 efe8 e27d 073f 67fa 7d17 c1f5 083f
00000090: 03eb 0c46 9f6d 0a3f a0db 9b74 7de5 0b3f
000000a0: 3ccc 2aa3 5b5d 0d3f d9bc b9d1 39d5 0e3f
000000b0: bb56 2400 8c26 103f 09cf 6b17 7be2 103f
000000c0: 5847 b32e 6a9e 113f a6bf fa45 595a 123f
000000d0: f437 425d 4816 133f 42b0 8974 37d2 133f
000000e0: 9128 d18b 268e 143f dfa0 18a3 154a 153f
000000f0: 2d19 60ba 0406 163f 7c91 a7d1 f3c1 163f
00000100: ca09 efe8 e27d 173f 1882 3600 d239 183f
00000110: 67fa 7d17 c1f5 183f b572 c52e b0b1 193f
00000120: 03eb 0c46 9f6d 1a3f 5263 545d 8e29 1b3f
00000130: a0db 9b74 7de5 1b3f ee53 e38b 6ca1 1c3f
00000140: 3ccc 2aa3 5b5d 1d3f 8b44 72ba 4a19 1e3f
00000150: d9bc b9d1 39d5 1e3f 2735 01e9 2891 1f3f
00000160: bb56 2400 8c26 203f e212 c88b 8384 203f
00000170: 09cf 6b17 7be2 203f 308b 0fa3 7240 213f
00000180: 5847 b32e 6a9e 213f 7f03 57ba 61fc 213f
00000190: 7f03 57ba 61fc 213f 5847 b32e 6a9e 213f
000001a0: 308b 0fa3 7240 213f 09cf 6b17 7be2 203f
000001b0: e212 c88b 8384 203f bb56 2400 8c26 203f
000001c0: 2735 01e9 2891 1f3f d9bc b9d1 39d5 1e3f
000001d0: 8b44 72ba 4a19 1e3f 3ccc 2aa3 5b5d 1d3f
000001e0: ee53 e38b 6ca1 1c3f a0db 9b74 7de5 1b3f
000001f0: 5263 545d 8e29 1b3f 03eb 0c46 9f6d 1a3f
00000200: b572 c52e b0b1 193f 67fa 7d17 c1f5 183f
00000210: 1882 3600 d239 183f ca09 efe8 e27d 173f
00000220: 7c91 a7d1 f3c1 163f 2d19 60ba 0406 163f
00000230: dfa0 18a3 154a 153f 9128 d18b 268e 143f
00000240: 42b0 8974 37d2 133f f437 425d 4816 133f
00000250: 09cf 6b17 7be2 103f bb56 2400 8c26 103f
00000260: d9bc b9d1 39d5 0e3f 3ccc 2aa3 5b5d 0d3f
00000270: a0db 9b74 7de5 0b3f 03eb 0c46 9f6d 0a3f
00000280: 67fa 7d17 c1f5 083f ca09 efe8 e27d 073f
00000290: 2d19 60ba 0406 063f 9128 d18b 268e 043f
000002a0: f437 425d 4816 033f 5847 b32e 6a9e 013f
000002b0: bb56 2400 8c26 003f 3ccc 2aa3 5b5d fd3e
000002c0: 03eb 0c46 9f6d fa3e ca09 efe8 e27d f73e
000002d0: 9128 d18b 268e f43e 5847 b32e 6a9e f13e
000002e0: 3ccc 2aa3 5b5d ed3e ca09 efe8 e27d e73e
000002f0: 5847 b32e 6a9e e13e ca09 efe8 e27d d73e
00000300: ca09 efe8 e27d c73e 0000 0000 0000 0000
0.0 2.8004340672804284e-06 5.600868134560857e-06 8.401302201841286e-06 1.1201736269121714e-05 1.4002170336402141e-05 1.6802604403682572e-05 1.9603038470963e-05
2.2403472538243427e-05 2.5203906605523855e-05 2.8004340672804282e-05 3.080477474008471e-05 3.3605208807365144e-05 3.640564287464557e-05 3.9206076941926e-05 4.200651100920642e-05
4.4806945076486854e-05 4.7607379143767285e-05 5.040781321104771e-05 5.320824727832814e-05 5.6008681345608564e-05 5.8809115412888995e-05 6.160954948016943e-05 6.440998354744985e-05
6.721041761473029e-05 7.001085168201071e-05 7.281128574929114e-05 7.561171981657156e-05 7.8412153883852e-05 8.121258795113242e-05 8.401302201841285e-05 8.681345608569328e-05
8.961389015297371e-05 9.241432422025413e-05 9.521475828753457e-05 9.8015192354815e-05 0.00010081562642209542 0.00010361606048937586 0.00010641649455665628 0.0001092169286239367
0.00011201736269121713 0.00011481779675849757 0.00011761823082577799 0.00012041866489305841 0.00012321909896033885 0.00012601953302761928 0.0001288199670948997 0.00013162040116218012
0.00013442083522946058 0.000137221269296741 0.000137221269296741 0.00013442083522946058 0.00013162040116218012 0.0001288199670948997 0.00012601953302761928 0.00012321909896033885
0.00012041866489305841 0.00011761823082577799 0.00011481779675849757 0.00011201736269121713 0.0001092169286239367 0.00010641649455665628 0.00010361606048937586 0.00010081562642209542
9.8015192354815e-05 9.521475828753457e-05 9.241432422025413e-05 8.961389015297371e-05 8.681345608569328e-05 8.401302201841285e-05 8.121258795113242e-05 7.8412153883852e-05
7.561171981657156e-05 7.281128574929114e-05 6.440998354744985e-05 6.160954948016943e-05 5.8809115412888995e-05 5.6008681345608564e-05 5.320824727832814e-05 5.040781321104771e-05
4.7607379143767285e-05 4.4806945076486854e-05 4.200651100920642e-05 3.9206076941926e-05 3.640564287464557e-05 3.3605208807365144e-05 3.080477474008471e-05 2.8004340672804282e-05
2.5203906605523855e-05 2.2403472538243427e-05 1.9603038470963e-05 1.6802604403682572e-05 1.4002170336402141e-05 1.1201736269121714e-05 8.401302201841286e-06 5.600868134560857e-06
2.8004340672804284e-06 0.0

current_density f8 [98]
00000000: f41b 060f eae8 0ebf 1f82 7636 ba25 14bf
00000010: ab75 49ca 33cd 13bf 093a b5cc aef1 13bf
00000020: a605 9c62 5bc7 13bf 55c1 1c9c b8d6 13bf
00000030: fb40 3093 dad1 13bf 4c22 f39a 34c8 13bf
00000040: abcc 42b8 bdc1 13bf 2d16 27b9 5fca 13bf
00000050: bc74 9f70 0404 14bf 20d4 cc8f 1809 14bf
00000060: ae9d e601 0512 14bf 8bee 322d df2d 14bf
00000070: 48cc 345d ebb6 13bf 1091 17d3 9d0b 14bf
00000080: 0221 7f9e ee7e 13bf bb81 2f5c e885 13bf
00000090: 6bee afc2 1070 13bf f8bf ef0a b57e 13bf
000000a0: a0f9 f988 6299 13bf f5b8 45bf f68c 13bf
000000b0: 884d 8f62 f695 13bf 9c64 3eef e1a1 13bf
000000c0: 9e97 8c99 b07c 13bf 4e6a 79bb 108c 13bf
000000d0: dee2 e09c 44ba 13bf b2eb 86c4 4fb9 13bf
000000e0: 9206 e967 c2c9 13bf 4951 061c 7bab 13bf
000000f0: d6e1 9ea5 1dba 13bf 37d7 aeef 9c9f 13bf
00000100: 0756 f95f f9d4 13bf 2b3d 5d99 6074 13bf
00000110: fdde 1ff8 f07b 13bf c6b9 deac 56c2 13bf
00000120: 818d f429 d195 13bf d6cc 9b45 2ca3 13bf
00000130: 2294 d1f4 75ad 13bf 9051 9575 62bb 13bf
00000140: e9a1 4025 29d7 13bf 798a bf9a 6daf 13bf
00000150: 23ba 83ef c3a7 13bf 35d7 24e0 71a2 13bf
00000160: 312b 3e38 a7db 13bf a11a 7fdf 5985 13bf
00000170: 4724 8dd0 7ec0 12bf 1022 f989 34ab 12bf
00000180: d51d e89b 82b2 12bf e133 8a47 6390 12bf
00000190: d027 d9cb caa9 12bf ffc0 00de 9585 12bf
000001a0: b803 c3a5 7a8f 12bf 5452 f6f7 95da 12bf
000001b0: c719 615f 8594 13bf 3b48 ec00 c5b3 13bf
000001c0: 5d29 b84c 2fd1 13bf f12d 9b38 b1e5 13bf
000001d0: d355 239b cfd3 13bf 12bc b597 89e3 13bf
000001e0: 4b22 698b 09cb 13bf 78b2 07d9 2fc9 13bf
000001f0: 5ede 4055 abb1 13bf 4715 02f2 a4bc 13bf
00000200: a82f 6148 85c4 13bf ec11 adb2 48ac 13bf
00000210: 5614 8dae 91c5 13bf 6e99 b530 60c0 13bf
00000220: 36c3 7c13 b4c7 13bf e4ef 5b55 ffc2 13bf
00000230: f774 e6a8 4cc6 13bf b9e0 05eb b7b3 13bf
00000240: 81f5 537d 45a1 13bf 50b5 04d2 eaa5 13bf
00000250: f33f 648c 88d4 13bf 10b6 2d60 ff98 13bf
00000260: 8ae8 3c60 397c 13bf 53b0 eb4c ea91 13bf
00000270: 5ddd 6fd1 a272 13bf 0189 54e2 378d 13bf
00000280: 3f39 441d fbb0 13bf ee97 982a 53ac 13bf
00000290: 24f7 5042 e939 14bf 3d3a 8336 1f57 14bf
000002a0: 8256 9f58 c316 14bf f131 65ee 1a1c 14bf
000002b0: fda9 2b54 3b4a 14bf ba48 9ebd 2b54 14bf
000002c0: 4858 4bb8 b73a 14bf 1676 b8e2 b161 14bf
000002d0: 51eb f2c2 3574 14bf 722b 9df8 285b 14bf
000002e0: 312e b91e 7a34 14bf f230 5f54 f60a 14bf
000002f0: 9f6a 0701 251d 14bf bdd1 9686 ed45 14bf
00000300: 5320 aaf5 1538 14bf 3790 3a2d 824b 14bf
-5.8955805687203796e-05 -7.685612728503724e-05 -7.553700067704806e-05 -7.608060257278266e-05 -7.544989844278943e-05 -7.56788422477996e-05 -7.56063134732566e-05 -7.54625423155044e-05
-7.536621530128638e-05 -7.549485443466486e-05 -7.635380839539607e-05 -7.64294854434665e-05 -7.65624576844956e-05 -7.697748815165878e-05 -7.520495937711578e-05 -7.646704468517265e-05
-7.437068381855111e-05 -7.447462762356128e-05 -7.414915368991199e-05 -7.436733243060256e-05 -7.476486120514556e-05 -7.45797731888964e-05 -7.471386255924171e-05 -7.489148612051455e-05
-7.433727149627623e-05 -7.4566384563304e-05 -7.525485781990522e-05 -7.524060595802301e-05 -7.548569735951253e-05 -7.50345125253893e-05 -7.525258970886932e-05 -7.485766756939743e-05
-7.565280974949222e-05 -7.421340555179418e-05 -7.432611712931618e-05 -7.537511848341232e-05 -7.471169600541638e-05 -7.491071428571429e-05 -7.506401489505756e-05 -7.527149627623562e-05
-7.568539268788085e-05 -7.509333107650643e-05 -7.497914691943128e-05 -7.489986459038591e-05 -7.575233581584292e-05 -7.446633378469871e-05 -7.153295531482736e-05 -7.121570751523359e-05
-7.132455991875422e-05 -7.081609681787407e-05 -7.119465132024373e-05 -7.065512863913338e-05 -7.08025558564658e-05 -7.192173324306025e-05 -7.469238320920785e-05 -7.515802301963439e-05
-7.559634394041976e-05 -7.590192958700067e-05 -7.563547731888964e-05 -7.586982058226135e-05 -7.55047393364929e-05 -7.547716655382532e-05 -7.512672647257956e-05 -7.52902674339878e-05
-7.540763371699391e-05 -7.504647935003384e-05 -7.542325660121868e-05 -7.534587000677047e-05 -7.545506093432634e-05 -7.538493568043332e-05 -7.543414014895057e-05 -7.515726134055518e-05
-7.48823798239675e-05 -7.495160798916723e-05 -7.564624238320921e-05 -7.47590893703453e-05 -7.43303317535545e-05 -7.465355450236967e-05 -7.41874576844956e-05 -7.458356465809073e-05
-7.51164691943128e-05 -7.504708869329722e-05 -7.715688896411645e-05 -7.759216316858497e-05 -7.663314150304672e-05 -7.671274542992553e-05 -7.74000846310088e-05 -7.754818889641165e-05
-7.716890656736628e-05 -7.774971225457008e-05 -7.802560934326337e-05 -7.765233581584293e-05 -7.707591401489505e-05 -7.645729519295869e-05 -7.672823290453622e-05 -7.733595125253893e-05
-7.712968855788761e-05 -7.741910968178741e-05

resistivity f8 [98]
00000000: 0000 0000 0000 0080 cef3 5dc8 eaa7 a2bf
00000010: 65d9 b20a 52fb b2bf 201b d07e e644 bcbf
00000020: 0b08 8925 ee00 c3bf 34db ab1d c4ae c7bf
00000030: 1ba8 ad68 4c72 ccbf 1abe 32ca 19a0 d0bf
00000040: 2d8b 6601 5506 d3bf 1415 0595 c95d d5bf
00000050: e649 58dd 2b79 d7bf ec5b b320 8bcb d9bf
00000060: 2c0d d6a3 5a17 dcbf 8d9d aa35 a144 debf
00000070: 6388 0da0 adae e0bf 257c c359 3494 e1bf
00000080: dadb 62d4 8647 e3bf 7919 9c96 ad74 e4bf
00000090: 73fe a964 0ec1 e5bf e1b6 e8b9 33e5 e6bf
000000a0: 0a3d 06bf e1f8 e7bf 6ef7 9fb4 b73b e9bf
000000b0: 71ee 7b87 2d63 eabf 6cdc 2d48 7b85 ebbf
000000c0: c16a 0119 9eee ecbf 3b40 6252 850b eebf
000000d0: 285b 592b 00f6 eebf 7ba9 acf4 3314 f0bf
000000e0: 7339 ce91 cb9e f0bf 4c1d a206 4051 f1bf
000000f0: 8dee 4f9c d4dc f1bf afa1 6bdc 2f8e f2bf
00000100: e340 86c0 e1f3 f2bf 053f 6968 8cec f3bf
00000110: 506c 0336 247f f4bf b318 cae5 4bce f4bf
00000120: 7e1f 7ebc 1f97 f5bf 4762 cb2b 9021 f6bf
00000130: 17aa 589e cdae f6bf df14 b7bd 2f37 f7bf
00000140: 9990 7ec9 3dae f7bf f40e 9c02 ca76 f8bf
00000150: 237a bf65 4f19 f9bf 3ac6 55c5 41b9 f9bf
00000160: 555c 4b8f 9206 fabf abe7 d85d ab13 fbbf
00000170: 2f96 77cf 45d0 fcbf d0a0 3340 3392 fdbf
00000180: 4308 4a1b 7827 febf f7b1 ba50 df00 ffbf
00000190: 7d4c f4aa abd6 febf 4e6a d5b8 9b70 febf
000001a0: a0de 7cd3 5fbe fdbf 27b5 8055 66a8 fcbf
000001b0: e96f f3fc b0fe fabf 2022 4bc1 413b fabf
000001c0: e86a a107 967c f9bf e336 31ab 31cb f8bf
000001d0: 166d 0cee e549 f8bf 9cf3 2d46 819f f7bf
000001e0: ba94 d7c8 d324 f7bf 8496 5b7e 048f f6bf
000001f0: f22b 1fe0 4511 f6bf ccc4 b089 a66c f5bf
00000200: 65da cff3 ffcb f4bf 87df df56 c64c f4bf
00000210: d777 1442 bb9a f3bf afef a6ac a507 f3bf
00000220: 7aab 6d28 9468 f2bf 75be 946c cdd4 f1bf
00000230: 10ca 8a99 c339 f1bf 7faf f879 63b1 f0bf
00000240: 6695 c4ed e427 f0bf 35e1 b59c 1116 efbf
00000250: a8c0 8387 2f3f ebbf 37b6 fb57 175f eabf
00000260: 4f32 b73b 6551 e9bf 488a f621 0802 e8bf
00000270: f409 c7c1 69f3 e6bf fede 718c 9ea0 e5bf
00000280: 0712 02c3 ee47 e4bf f51e d6db 0a1b e3bf
00000290: 0073 dc14 f86b e1bf 9669 9a4e 492b e0bf
000002a0: f899 c99f 7267 debf 9957 bcf7 4309 dcbf
000002b0: 05cf 351f bc78 d9bf 4f80 eb8f 9e1c d7bf
000002c0: b6a4 5021 21e7 d4bf d28f 3aec 0671 d2bf
000002d0: c529 c3b8 4a14 d0bf 403f fabc 6bb2 cbbf
000002e0: 883c 8174 df40 c7bf dd14 f489 d4c0 c2bf
000002f0: e8cf 6d18 d107 bcbf 827f 0f0e 498a b2bf
00000300: 1ea1 d160 fa96 a2bf 0000 0000 0000 0080
-0.0 -0.036437355955946424 -0.07414734612652792 -0.1104263362504807 -0.1484658892896394 -0.185020937431284 -0.22223811255690937 -0.25977177377623806
-0.29726147782109785 -0.33384933045120246 -0.36677071204863265 -0.403048307356072 -0.43892541885016345 -0.47293882599702713 -0.5213230253250568 -0.549341368979985
-0.6024812839667633 -0.6392429296109149 -0.6798164335340985 -0.7154787665401409 -0.7491310816712098 -0.7885397460774877 -0.824606670968434 -0.8600441369770926
-0.9041281212224349 -0.9389063462313126 -0.9675293776188925 -1.0049323613735328 -1.038768357804284 -1.0823364504920674 -1.116413698763526 -1.1597136125729823
-1.1845414658055737 -1.2452510908660213 -1.2810403928658793 -1.3003653503560997 -1.3493955004687161 -1.3831941328736705 -1.4176765618709675 -1.4509732638119244
-1.4800393935084115 -1.5290012456834434 -1.5686792349366747 -1.6077287395859359 -1.62660461401335 -1.6923020997914857 -1.8008478264031387 -1.8481934078100046
-1.8846360269531182 -1.9377129701125548 -1.9274098089124714 -1.9024922580780586 -1.8589781056634038 -1.7911132183028913 -1.6871805077453195 -1.6394670057799274
-1.5929165170734283 -1.5496079146573087 -1.5180415438433719 -1.476441644800821 -1.4464910359759373 -1.4099163947916233 -1.3792170290714663 -1.339026010373618
-1.2998046420958869 -1.2687438386473973 -1.225276239514178 -1.1893669838163807 -1.1505319194063461 -1.1144537202307252 -1.076602554105765 -1.043307758761301
-1.009739807873609 -0.9714439450026818 -0.8514630934496568 -0.8241078108237109 -0.7911859670944724 -0.7502480185833713 -0.7172135147778236 -0.675856851869838
-0.6337808426620207 -0.5970510762863045 -0.5444298179096165 -0.5052839789598689 -0.4750639496254787 -0.4380655211729106 -0.3979940705096257 -0.3611217885463746
-0.3266070199338843 -0.2881486231728988 -0.2512385181732067 -0.21638247229975072 -0.18166726292335889 -0.14650971160896278 -0.10949427458200456 -0.07242256730341803
-0.03630812103148372 -0.0
