26022024_BS_1_W2_Test_for_Voltage_Driven/26022024_BS_1_W2_Test_for_Voltage_Driven_voltage_from_0_to_8e-6V_flipped/26022024_BS_1_W2_Test_for_Voltage_Driven_voltage_from_0_to_8e-6V_flipped-20240226124701.npz (npz, 7287 bytes, 7 tensors)

temperature f8 [100]
76.73839169756153 76.73776837283826 76.73808265435703 76.73764266014769 76.73776837283826 76.74082736702326 76.73764266014769 76.73733361624858
76.73826598510621 76.73907787721123 76.73764266014769 76.74007833508458 76.73832884133978 76.7378940854813 76.73801979807702 76.73826598510621
76.7421368593742 76.7378940854813 76.73839169756153 76.73814551062533 76.7375169474098 76.73832884133978 76.73757980378467 76.73820312886076
76.73826598510621 76.73770551649898 76.73820312886076 76.73845455377149 76.7378940854813 76.73801979807702 76.7386431223301 76.73776837283826
76.73801979807702 76.73895216501478 76.741953530755 76.73883169078186 76.73876883464314 76.73801979807702 76.74238828131661 76.73907787721123
76.73889454690885 76.73858026615568 76.7401411909763 76.73895216501478 76.73826598510621 76.7378940854813 76.73757980378467 76.73770551649898
76.73776837283826 76.7378940854813 76.73720790339412 76.73764266014769 76.73814551062533 76.73820312886076 76.73795694178514 76.73870597849255
76.73814551062533 76.73832884133978 76.74332587397036 76.7395807255231 76.73858026615568 76.73858026615568 76.73895216501478 76.7398897673382
76.73876883464314 76.73870597849255 76.73851740996952 76.73920358936036 76.73895216501478 76.73858026615568 76.73876883464314 76.74307445273557
76.73851740996952 76.73883169078186 76.73895216501478 76.73858026615568 76.73870597849255 76.73883169078186 76.73883169078186 76.73951786952553
76.73901502111895 76.73895216501478 76.73876883464314 76.73951786952553 76.73914073329178 76.73883169078186 76.73851740996952 76.73858026615568
76.73832884133978 76.73851740996952 76.73932930146196 76.73876883464314 76.73889454690885 76.73883169078186 76.73914073329178 76.73870597849255
76.7397064374824 76.7395807255231 76.73895216501478 76.74320016337674
00000000: 8a2a 40cf 412f 5340 4357 d698 372f 5340
00000010: 558d 07bf 3c2f 5340 005e 8f89 352f 5340
00000020: 4357 d698 372f 5340 3056 30b7 692f 5340
00000030: 005e 8f89 352f 5340 dc01 5679 302f 5340
00000040: f271 f9bf 3f2f 5340 70f4 4b0d 4d2f 5340
00000050: 005e 8f89 352f 5340 a66a 8571 5d2f 5340
00000060: decf 9cc7 402f 5340 7543 1da8 392f 5340
00000070: a522 64b7 3b2f 5340 f271 f9bf 3f2f 5340
00000080: c60a 992b 7f2f 5340 7543 1da8 392f 5340
00000090: 8a2a 40cf 412f 5340 cdf4 aac6 3d2f 5340
000000a0: bc57 487a 332f 5340 decf 9cc7 402f 5340
000000b0: 7fdc eb81 342f 5340 c210 56b8 3e2f 5340
000000c0: f271 f9bf 3f2f 5340 48dc 3291 362f 5340
000000d0: c210 56b8 3e2f 5340 f981 e3d6 422f 5340
000000e0: 7543 1da8 392f 5340 a522 64b7 3b2f 5340
000000f0: ae74 cded 452f 5340 4357 d698 372f 5340
00000100: a522 64b7 3b2f 5340 0083 05fe 4a2f 5340
00000110: a56f a92a 7c2f 5340 044a b704 492f 5340
00000120: 2a06 14fd 472f 5340 a522 64b7 3b2f 5340
00000130: 104c 234a 832f 5340 70f4 4b0d 4d2f 5340
00000140: a48a 5a0c 4a2f 5340 0427 2ae6 442f 5340
00000150: 9b6a 2879 5e2f 5340 0083 05fe 4a2f 5340
00000160: f271 f9bf 3f2f 5340 7543 1da8 392f 5340
00000170: 7fdc eb81 342f 5340 48dc 3291 362f 5340
00000180: 4357 d698 372f 5340 7543 1da8 392f 5340
00000190: 8ddb 0e6a 2e2f 5340 005e 8f89 352f 5340
000001a0: cdf4 aac6 3d2f 5340 c210 56b8 3e2f 5340
000001b0: b2b4 c0af 3a2f 5340 0dbf 70f5 462f 5340
000001c0: cdf4 aac6 3d2f 5340 decf 9cc7 402f 5340
000001d0: 4bbe afa6 922f 5340 ea37 654a 552f 5340
000001e0: 0427 2ae6 442f 5340 0427 2ae6 442f 5340
000001f0: 0083 05fe 4a2f 5340 3557 9c5a 5a2f 5340
00000200: 2a06 14fd 472f 5340 0dbf 70f5 462f 5340
00000210: 20d6 86de 432f 5340 de58 921c 4f2f 5340
00000220: 0083 05fe 4a2f 5340 0427 2ae6 442f 5340
00000230: 2a06 14fd 472f 5340 833f 2688 8e2f 5340
00000240: 20d6 86de 432f 5340 044a b704 492f 5340
00000250: 0083 05fe 4a2f 5340 0427 2ae6 442f 5340
00000260: 0dbf 70f5 462f 5340 044a b704 492f 5340
00000270: 044a b704 492f 5340 dd1a c242 542f 5340
00000280: 5abd a805 4c2f 5340 0083 05fe 4a2f 5340
00000290: 2a06 14fd 472f 5340 dd1a c242 542f 5340
000002a0: 4c28 ef14 4e2f 5340 044a b704 492f 5340
000002b0: 20d6 86de 432f 5340 0427 2ae6 442f 5340
000002c0: decf 9cc7 402f 5340 20d6 86de 432f 5340
000002d0: 3cb0 d82b 512f 5340 2a06 14fd 472f 5340
000002e0: a48a 5a0c 4a2f 5340 044a b704 492f 5340
000002f0: 4c28 ef14 4e2f 5340 0dbf 70f5 462f 5340
00000300: 2a68 ab59 572f 5340 ea37 654a 552f 5340
00000310: 0083 05fe 4a2f 5340 7005 6b97 902f 5340

voltage f8 [100]
0.0 1.6326530612244896e-07 3.265306122448979e-07 4.897959183673469e-07 6.530612244897958e-07 8.163265306122447e-07 9.795918367346939e-07 1.1428571428571428e-06
1.3061224489795917e-06 1.4693877551020406e-06 1.6326530612244895e-06 1.7959183673469386e-06 1.9591836734693877e-06 2.1224489795918364e-06 2.2857142857142856e-06 2.4489795918367342e-06
2.6122448979591834e-06 2.7755102040816325e-06 2.938775510204081e-06 3.1020408163265303e-06 3.265306122448979e-06 3.428571428571428e-06 3.5918367346938772e-06 3.755102040816326e-06
3.9183673469387755e-06 4.081632653061224e-06 4.244897959183673e-06 4.4081632653061216e-06 4.571428571428571e-06 4.73469387755102e-06 4.8979591836734685e-06 5.061224489795918e-06
5.224489795918367e-06 5.3877551020408154e-06 5.551020408163265e-06 5.714285714285714e-06 5.877551020408162e-06 6.040816326530612e-06 6.204081632653061e-06 6.367346938775509e-06
6.530612244897958e-06 6.6938775510204075e-06 6.857142857142856e-06 7.020408163265305e-06 7.1836734693877545e-06 7.346938775510203e-06 7.510204081632652e-06 7.6734693877551e-06
7.836734693877551e-06 8e-06 8e-06 7.836734693877551e-06 7.6734693877551e-06 7.510204081632652e-06 7.346938775510203e-06 7.1836734693877545e-06
7.020408163265305e-06 6.857142857142856e-06 6.6938775510204075e-06 6.530612244897958e-06 6.367346938775509e-06 6.204081632653061e-06 6.040816326530612e-06 5.877551020408162e-06
5.714285714285714e-06 5.551020408163265e-06 5.3877551020408154e-06 5.224489795918367e-06 5.061224489795918e-06 4.8979591836734685e-06 4.73469387755102e-06 4.571428571428571e-06
4.4081632653061216e-06 4.244897959183673e-06 4.081632653061224e-06 3.9183673469387755e-06 3.755102040816326e-06 3.5918367346938772e-06 3.428571428571428e-06 3.265306122448979e-06
3.1020408163265303e-06 2.938775510204081e-06 2.7755102040816325e-06 2.6122448979591834e-06 2.4489795918367342e-06 2.2857142857142856e-06 2.1224489795918364e-06 1.9591836734693877e-06
1.7959183673469386e-06 1.6326530612244895e-06 1.4693877551020406e-06 1.3061224489795917e-06 1.1428571428571428e-06 9.795918367346939e-07 8.163265306122447e-07 6.530612244897958e-07
4.897959183673469e-07 3.265306122448979e-07 1.6326530612244896e-07 0.0
00000000: 0000 0000 0000 0000 4a65 e8d1 c0e9 853e
00000010: 4a65 e8d1 c0e9 953e f84b 6e9d 506f a03e
00000020: 4a65 e8d1 c0e9 a53e 9c7e 6206 3164 ab3e
00000030: f84b 6e9d 506f b03e a158 abb7 882c b33e
00000040: 4a65 e8d1 c0e9 b53e f371 25ec f8a6 b83e
00000050: 9c7e 6206 3164 bb3e 468b 9f20 6921 be3e
00000060: f84b 6e9d 506f c03e 4cd2 8caa eccd c13e
00000070: a158 abb7 882c c33e f5de c9c4 248b c43e
00000080: 4a65 e8d1 c0e9 c53e 9feb 06df 5c48 c73e
00000090: f371 25ec f8a6 c83e 48f8 43f9 9405 ca3e
000000a0: 9c7e 6206 3164 cb3e f104 8113 cdc2 cc3e
000000b0: 468b 9f20 6921 ce3e 9a11 be2d 0580 cf3e
000000c0: f84b 6e9d 506f d03e 228f fda3 9e1e d13e
000000d0: 4cd2 8caa eccd d13e 7615 1cb1 3a7d d23e
000000e0: a158 abb7 882c d33e cb9b 3abe d6db d33e
000000f0: f5de c9c4 248b d43e 2022 59cb 723a d53e
00000100: 4a65 e8d1 c0e9 d53e 74a8 77d8 0e99 d63e
00000110: 9feb 06df 5c48 d73e c92e 96e5 aaf7 d73e
00000120: f371 25ec f8a6 d83e 1eb5 b4f2 4656 d93e
00000130: 48f8 43f9 9405 da3e 723b d3ff e2b4 da3e
00000140: 9c7e 6206 3164 db3e c7c1 f10c 7f13 dc3e
00000150: f104 8113 cdc2 dc3e 1b48 101a 1b72 dd3e
00000160: 468b 9f20 6921 de3e 70ce 2e27 b7d0 de3e
00000170: 9a11 be2d 0580 df3e 62aa 269a a917 e03e
00000180: f84b 6e9d 506f e03e 8ded b5a0 f7c6 e03e
00000190: 8ded b5a0 f7c6 e03e f84b 6e9d 506f e03e
000001a0: 62aa 269a a917 e03e 9a11 be2d 0580 df3e
000001b0: 70ce 2e27 b7d0 de3e 468b 9f20 6921 de3e
000001c0: 1b48 101a 1b72 dd3e f104 8113 cdc2 dc3e
000001d0: c7c1 f10c 7f13 dc3e 9c7e 6206 3164 db3e
000001e0: 723b d3ff e2b4 da3e 48f8 43f9 9405 da3e
000001f0: 1eb5 b4f2 4656 d93e f371 25ec f8a6 d83e
00000200: c92e 96e5 aaf7 d73e 9feb 06df 5c48 d73e
00000210: 74a8 77d8 0e99 d63e 4a65 e8d1 c0e9 d53e
00000220: 2022 59cb 723a d53e f5de c9c4 248b d43e
00000230: cb9b 3abe d6db d33e a158 abb7 882c d33e
00000240: 7615 1cb1 3a7d d23e 4cd2 8caa eccd d13e
00000250: 228f fda3 9e1e d13e f84b 6e9d 506f d03e
00000260: 9a11 be2d 0580 cf3e 468b 9f20 6921 ce3e
00000270: f104 8113 cdc2 cc3e 9c7e 6206 3164 cb3e
00000280: 48f8 43f9 9405 ca3e f371 25ec f8a6 c83e
00000290: 9feb 06df 5c48 c73e 4a65 e8d1 c0e9 c53e
000002a0: f5de c9c4 248b c43e a158 abb7 882c c33e
000002b0: 4cd2 8caa eccd c13e f84b 6e9d 506f c03e
000002c0: 468b 9f20 6921 be3e 9c7e 6206 3164 bb3e
000002d0: f371 25ec f8a6 b83e 4a65 e8d1 c0e9 b53e
000002e0: a158 abb7 882c b33e f84b 6e9d 506f b03e
000002f0: 9c7e 6206 3164 ab3e 4a65 e8d1 c0e9 a53e
00000300: f84b 6e9d 506f a03e 4a65 e8d1 c0e9 953e
00000310: 4a65 e8d1 c0e9 853e 0000 0000 0000 0000

resistance f8 [100]
-0.0 -0.03564403021685235 -0.07064006931486161 -0.10670821125599028 -0.14330248218976294 -0.18023461103271202 -0.2141897372031594 -0.25087645256682045
-0.28365440515246876 -0.3174632961282811 -0.3562345925199035 -0.3970100791971496 -0.4333549083889529 -0.4638071957055199 -0.4994359962938103 -0.5357377912098749
-0.5734847652114391 -0.6248507565791741 -0.6646858413145638 -0.706199222127132 -0.741656212327051 -0.772062531274564 -0.8098402622752354 -0.8458488624748676
-0.888903259491584 -0.9268631132644243 -0.9478521331168456 -0.989038916680399 -1.03446370799055 -1.0797593218333286 -1.1054641901941187 -1.157338584564271
-1.1726586500423246 -1.2264713834331002 -1.258833837529453 -1.28092497129287 -1.3393529871261807 -1.3635843351044619 -1.3885962990619847 -1.4441798185507477
-1.4774736358796416 -1.494457646626058 -1.5322258702675844 -1.5879838151027716 -1.5976379213811998 -1.644403235902365 -1.7777802168578816 -1.8151841135936035
-1.8655467517457034 -1.884966613706959 -1.883585470869291 -1.8562372212387899 -1.818185334981305 -1.7541267177613589 -1.678088232387625 -1.6233186102793358
-1.5874164904138293 -1.5657915262102735 -1.5106203588636171 -1.4622687726956105 -1.425133841307674 -1.3758911367414786 -1.3679369308980882 -1.3216408622865914
-1.3032487482540132 -1.2514299542586709 -1.2084774694481788 -1.1853748341829615 -1.1413086447410843 -1.1017275951712233 -1.0721340078781514 -1.0231803425057826
-0.9933094401025094 -0.9494689129658683 -0.9175158692741922 -0.8821283430303818 -0.83362330814394 -0.8005031307722926 -0.7589363090214094 -0.7184706486486381
-0.6957941159126896 -0.6506497718464945 -0.6200439567397519 -0.5793581743410049 -0.541283688910407 -0.4970139093691408 -0.460610503081626 -0.424710702111559
-0.38950584672398736 -0.3566428995231786 -0.3172547187772876 -0.2807132907172544 -0.2448287950490721 -0.21027226723404316 -0.17287980925859456 -0.14189808033802817
-0.1076691777302205 -0.07061791745872385 -0.0354827618023616 -0.0
00000000: 0000 0000 0000 0080 de74 2830 ef3f a2bf
00000010: cc97 7eb3 7715 b2bf a023 8fb5 3a51 bbbf
00000020: 5c67 3859 bc57 c2bf 6113 ff7f ed11 c7bf
00000030: 6994 36be 916a cbbf 721a c71b 5c0e d0bf
00000040: 88c1 5fce 6427 d2bf 0149 a392 5151 d4bf
00000050: 78eb 242d 8ccc d6bf 5862 95f6 9c68 d9bf
00000060: 3fdd c539 16bc dbbf 7919 4d60 04af ddbf
00000070: e2bb a165 c2f6 dfbf 3a49 8f94 c324 e1bf
00000080: bbcb eab8 fc59 e2bf da6d 8c03 c7fe e3bf
00000090: f4ed d13d 1b45 e5bf bce4 6f1c 2f99 e6bf
000000a0: c13c 1acf a5bb e7bf c151 497b bcb4 e8bf
000000b0: 2e99 2e20 36ea e9bf 0707 36a2 3111 ebbf
000000c0: 7a5f 9a3f e571 ecbf bedc ead4 dca8 edbf
000000d0: 37c8 25ff cd54 eebf 78a2 33f1 34a6 efbf
000000e0: 2f7e 2bd1 298d f0bf 5e34 edb5 b146 f1bf
000000f0: 9c86 fc37 fbaf f1bf bca3 b176 7584 f2bf
00000100: 4ada 74b7 35c3 f2bf 5f33 1575 a09f f3bf
00000110: 4898 34f3 2e24 f4bf 6552 c52e ab7e f4bf
00000120: 141c d865 fd6d f5bf fcc8 c9ce 3dd1 f5bf
00000130: f415 bdc0 b037 f6bf b27f 234c 5c1b f7bf
00000140: 66e2 2c65 bba3 f7bf b741 d86b 4ce9 f7bf
00000150: 8f26 2e46 ff83 f8bf 7519 87b7 6168 f9bf
00000160: 21e8 f2c7 ec8f f9bf 1932 7ac4 794f fabf
00000170: 1316 2eab c971 fcbf 05a7 417f fe0a fdbf
00000180: 5d82 fe8c 47d9 fdbf a6c5 7ec0 d228 febf
00000190: 7bab c984 2a23 febf 936a edcc 25b3 fdbf
000001a0: f2fb 7c81 4917 fdbf 9f32 5d2d e710 fcbf
000001b0: 4a84 de0b 73d9 fabf e834 62ef 1cf9 f9bf
000001c0: fe55 77d5 0e66 f9bf 34d5 566a 7b0d f9bf
000001d0: 37db df40 802b f8bf 0809 cbf0 7365 f7bf
000001e0: d46d 8d24 59cd f6bf 1b93 b26c a603 f6bf
000001f0: 9a2a d3d5 11e3 f5bf 1a40 89e3 7025 f5bf
00000200: dfdc 045c 1bda f4bf 8b69 6c6a db05 f4bf
00000210: 6ab9 9378 ec55 f3bf 6d13 259a 4bf7 f2bf
00000220: 71e1 7cda cc42 f2bf 32c7 651d ada0 f1bf
00000230: cf41 4cfd 7527 f1bf 038f cf59 f25e f0bf
00000240: 138c 01e1 30c9 efbf f539 38a1 0c62 eebf
00000250: 51ff 823d 4a5c edbf c915 0638 653a ecbf
00000260: 712b b5c9 0aad eabf 4967 e0bd b89d e9bf
00000270: 0ece 5fcc 3449 e8bf 2a9e 6228 b6fd e6bf
00000280: f903 9305 f243 e6bf b660 6778 1fd2 e4bf
00000290: 15f3 886c 66d7 e3bf 51e0 6e27 1a8a e2bf
000002a0: 594f b72b 3252 e1bf c071 996d 13cf dfbf
000002b0: 0e80 bb79 a47a ddbf 5b24 f5cb 752e dbbf
000002c0: acf0 51ee a9ed d8bf e25e 73bd 3cd3 d6bf
000002d0: b09b 69bc e64d d4bf b3b8 cbe0 34f7 d1bf
000002e0: c56b edc9 8c56 cfbf 9153 839f 33ea cabf
000002f0: c7c2 73f3 ec20 c6bf a360 355f b729 c2bf
00000300: 4c75 230d 3590 bbbf 5331 ff0d 0414 b2bf
00000310: f99a 06eb cb2a a2bf 0000 0000 0000 0080

current_source f8 [100]
-3.585021e-06 -4.580439e-06 -4.622456e-06 -4.590049e-06 -4.557222e-06 -4.529244e-06 -4.573477e-06 -4.555458e-06
-4.604626e-06 -4.628528e-06 -4.583084e-06 -4.523609e-06 -4.520968e-06 -4.576145e-06 -4.576591e-06 -4.571228e-06
-4.555038e-06 -4.441877e-06 -4.4213e-06 -4.392586e-06 -4.402722e-06 -4.440795e-06 -4.435241e-06 -4.439448e-06
-4.408092e-06 -4.403706e-06 -4.478439e-06 -4.457017e-06 -4.419129e-06 -4.384953e-06 -4.430681e-06 -4.373158e-06
-4.455252e-06 -4.392891e-06 -4.409653e-06 -4.461062e-06 -4.388351e-06 -4.430101e-06 -4.46788e-06 -4.408971e-06
-4.420121e-06 -4.479135e-06 -4.475282e-06 -4.420957e-06 -4.496434e-06 -4.467845e-06 -4.224484e-06 -4.227378e-06
-4.200771e-06 -4.244107e-06 -4.247219e-06 -4.221839e-06 -4.2204e-06 -4.281449e-06 -4.37816e-06 -4.425301e-06
-4.422537e-06 -4.379346e-06 -4.431211e-06 -4.466082e-06 -4.467894e-06 -4.509137e-06 -4.416005e-06 -4.447162e-06
-4.384647e-06 -4.435742e-06 -4.4583e-06 -4.407458e-06 -4.43458e-06 -4.445708e-06 -4.41614e-06 -4.467862e-06
-4.437855e-06 -4.470813e-06 -4.448569e-06 -4.441947e-06 -4.504555e-06 -4.486974e-06 -4.517601e-06 -4.544801e-06
-4.458274e-06 -4.516678e-06 -4.476312e-06 -4.50886e-06 -4.524392e-06 -4.598894e-06 -4.607904e-06 -4.612984e-06
-4.610761e-06 -4.577837e-06 -4.631571e-06 -4.65287e-06 -4.667985e-06 -4.658683e-06 -4.721931e-06 -4.602326e-06
-4.549082e-06 -4.623906e-06 -4.601257e-06 -4.554618e-06
00000000: 25b9 3d23 c612 cebe 875f 367c 3536 d3be
00000010: ca8b bc07 5363 d3be 9d0c d80f 8740 d3be
00000020: b32d 14a5 471d d3be 23ae 5a1c 3dff d2be
00000030: 3cf3 03c9 bb2e d3be 3135 9dc2 621b d3be
00000040: 3b1f 07f5 2d50 d3be ae4b c016 d869 d3be
00000050: 446e 8a89 0c39 d3be 4c14 7b2c 30f9 d2be
00000060: a29d a038 5af6 d2be 662c d328 9931 d3be
00000070: 9ee8 48c1 1332 d3be cbb3 b595 512c d3be
00000080: 74d5 bd4f ef1a d3be 311a 48da 6da1 d2be
00000090: 03f9 a1b0 558b d2be e32b 83d8 806c d2be
000000a0: ab76 1a02 6377 d2be 41ea 4c6f 44a0 d2be
000000b0: e897 4bc3 4d9a d2be 6e1f 9a2c d29e d2be
000000c0: 9f75 421a 277d d2be cc98 f27c 7178 d2be
000000d0: ef67 4ef0 afc8 d2be 2e89 1181 afb1 d2be
000000e0: 01cf 16ee 0089 d2be 3b59 e3b3 4e64 d2be
000000f0: e163 d251 6895 d2be e1ed 8c84 a457 d2be
00000100: a82a 3c58 caaf d2be 82b7 faae d46c d2be
00000110: 6388 de2f d47e d2be b881 a362 07b6 d2be
00000120: d97b e1bc f467 d2be 3141 f3e3 c894 d2be
00000130: 5c8b bc80 59bd d2be d2bf 62b8 187e d2be
00000140: 4921 e29b 118a d2be c2c4 f340 6fc9 d2be
00000150: c24f 2e26 4cc5 d2be b148 2768 f78a d2be
00000160: 8995 db5d 02dc d2be b798 d4e1 4fbd d2be
00000170: 35ee e051 01b8 d1be 8937 06d1 1cbb d1be
00000180: 3d13 d923 8b9e d1be cee1 be3f 13cd d1be
00000190: 270b 47ab 6ad0 d1be 77df 8c44 2ab5 d1be
000001a0: f36a edb7 9eb3 d1be ec05 64bd 2bf5 d1be
000001b0: 0d46 0275 035d d2be bd68 fa79 a18f d2be
000001c0: ceed c4b6 a98c d2be e8e7 5676 495e d2be
000001d0: a599 4101 fa95 d2be 3a06 bc45 6bbb d2be
000001e0: 9e1f e659 5dbd d2be 9ed9 0324 a6e9 d2be
000001f0: 70dd 2136 a685 d2be 9439 1895 1aa7 d2be
00000200: 9767 0d97 fa63 d2be 233f 097a d79a d2be
00000210: d3d2 2a2c 10b3 d2be f0cd 79d4 787c d2be
00000220: ba2d 8e11 9899 d2be c9ca f0e8 8aa5 d2be
00000230: eda9 e951 cb85 d2be 075f 198e 54bd d2be
00000240: 134c 314b 1c9d d2be 685f 43b8 7fc0 d2be
00000250: 82ed ea55 9da8 d2be 7bff 1718 81a1 d2be
00000260: 2fe1 6da6 bae4 d2be 36af 8905 dad1 d2be
00000270: 96d5 10b5 bcf2 d2be d04a e862 f10f d3be
00000280: 5876 9406 09b3 d2be 9402 b7fe bef1 d2be
00000290: bdc6 fc45 67c6 d2be 8376 dfff 59e9 d2be
000002a0: ba1c 3567 07fa d2be 9bdd 625b 064a d3be
000002b0: a26f c501 b353 d3be 3fdd fd62 2759 d3be
000002c0: 48fa 4555 c456 d3be 9473 bd40 6a33 d3be
000002d0: c1f5 d68a 1c6d d3be 3ed0 b82a fb83 d3be
000002e0: c548 4af2 3594 d3be 5c59 3b08 398a d3be
000002f0: db46 9082 22ce d3be d98c eabc b54d d3be
00000300: b34f 8023 8a14 d3be 8262 6a9a e164 d3be
00000310: 268b bae4 8f4c d3be b675 dedc 7b1a d3be

electric_field f8 [100]
0.0 2.8004340672804284e-06 5.600868134560857e-06 8.401302201841286e-06 1.1201736269121714e-05 1.4002170336402141e-05 1.6802604403682572e-05 1.9603038470963e-05
2.2403472538243427e-05 2.5203906605523855e-05 2.8004340672804282e-05 3.080477474008471e-05 3.3605208807365144e-05 3.640564287464557e-05 3.9206076941926e-05 4.200651100920642e-05
4.4806945076486854e-05 4.7607379143767285e-05 5.040781321104771e-05 5.320824727832814e-05 5.6008681345608564e-05 5.8809115412888995e-05 6.160954948016943e-05 6.440998354744985e-05
6.721041761473029e-05 7.001085168201071e-05 7.281128574929114e-05 7.561171981657156e-05 7.8412153883852e-05 8.121258795113242e-05 8.401302201841285e-05 8.681345608569328e-05
8.961389015297371e-05 9.241432422025413e-05 9.521475828753457e-05 9.8015192354815e-05 0.00010081562642209542 0.00010361606048937586 0.00010641649455665628 0.0001092169286239367
0.00011201736269121713 0.00011481779675849757 0.00011761823082577799 0.00012041866489305841 0.00012321909896033885 0.00012601953302761928 0.0001288199670948997 0.00013162040116218012
0.00013442083522946058 0.000137221269296741 0.000137221269296741 0.00013442083522946058 0.00013162040116218012 0.0001288199670948997 0.00012601953302761928 0.00012321909896033885
0.00012041866489305841 0.00011761823082577799 0.00011481779675849757 0.00011201736269121713 0.0001092169286239367 0.00010641649455665628 0.00010361606048937586 0.00010081562642209542
9.8015192354815e-05 9.521475828753457e-05 9.241432422025413e-05 8.961389015297371e-05 8.681345608569328e-05 8.401302201841285e-05 8.121258795113242e-05 7.8412153883852e-05
7.561171981657156e-05 7.281128574929114e-05 7.001085168201071e-05 6.721041761473029e-05 6.440998354744985e-05 6.160954948016943e-05 5.8809115412888995e-05 5.6008681345608564e-05
5.320824727832814e-05 5.040781321104771e-05 4.7607379143767285e-05 4.4806945076486854e-05 4.200651100920642e-05 3.9206076941926e-05 3.640564287464557e-05 3.3605208807365144e-05
3.080477474008471e-05 2.8004340672804282e-05 2.5203906605523855e-05 2.2403472538243427e-05 1.9603038470963e-05 1.6802604403682572e-05 1.4002170336402141e-05 1.1201736269121714e-05
8.401302201841286e-06 5.600868134560857e-06 2.8004340672804284e-06 0.0
00000000: 0000 0000 0000 0000 ca09 efe8 e27d c73e
00000010: ca09 efe8 e27d d73e 5847 b32e 6a9e e13e
00000020: ca09 efe8 e27d e73e 3ccc 2aa3 5b5d ed3e
00000030: 5847 b32e 6a9e f13e 9128 d18b 268e f43e
00000040: ca09 efe8 e27d f73e 03eb 0c46 9f6d fa3e
00000050: 3ccc 2aa3 5b5d fd3e bb56 2400 8c26 003f
00000060: 5847 b32e 6a9e 013f f437 425d 4816 033f
00000070: 9128 d18b 268e 043f 2d19 60ba 0406 063f
00000080: ca09 efe8 e27d 073f 67fa 7d17 c1f5 083f
00000090: 03eb 0c46 9f6d 0a3f a0db 9b74 7de5 0b3f
000000a0: 3ccc 2aa3 5b5d 0d3f d9bc b9d1 39d5 0e3f
000000b0: bb56 2400 8c26 103f 09cf 6b17 7be2 103f
000000c0: 5847 b32e 6a9e 113f a6bf fa45 595a 123f
000000d0: f437 425d 4816 133f 42b0 8974 37d2 133f
000000e0: 9128 d18b 268e 143f dfa0 18a3 154a 153f
000000f0: 2d19 60ba 0406 163f 7c91 a7d1 f3c1 163f
00000100: ca09 efe8 e27d 173f 1882 3600 d239 183f
00000110: 67fa 7d17 c1f5 183f b572 c52e b0b1 193f
00000120: 03eb 0c46 9f6d 1a3f 5263 545d 8e29 1b3f
00000130: a0db 9b74 7de5 1b3f ee53 e38b 6ca1 1c3f
00000140: 3ccc 2aa3 5b5d 1d3f 8b44 72ba 4a19 1e3f
00000150: d9bc b9d1 39d5 1e3f 2735 01e9 2891 1f3f
00000160: bb56 2400 8c26 203f e212 c88b 8384 203f
00000170: 09cf 6b17 7be2 203f 308b 0fa3 7240 213f
00000180: 5847 b32e 6a9e 213f 7f03 57ba 61fc 213f
00000190: 7f03 57ba 61fc 213f 5847 b32e 6a9e 213f
000001a0: 308b 0fa3 7240 213f 09cf 6b17 7be2 203f
000001b0: e212 c88b 8384 203f bb56 2400 8c26 203f
000001c0: 2735 01e9 2891 1f3f d9bc b9d1 39d5 1e3f
000001d0: 8b44 72ba 4a19 1e3f 3ccc 2aa3 5b5d 1d3f
000001e0: ee53 e38b 6ca1 1c3f a0db 9b74 7de5 1b3f
000001f0: 5263 545d 8e29 1b3f 03eb 0c46 9f6d 1a3f
00000200: b572 c52e b0b1 193f 67fa 7d17 c1f5 183f
00000210: 1882 3600 d239 183f ca09 efe8 e27d 173f
00000220: 7c91 a7d1 f3c1 163f 2d19 60ba 0406 163f
00000230: dfa0 18a3 154a 153f 9128 d18b 268e 143f
00000240: 42b0 8974 37d2 133f f437 425d 4816 133f
00000250: a6bf fa45 595a 123f 5847 b32e 6a9e 113f
00000260: 09cf 6b17 7be2 103f bb56 2400 8c26 103f
00000270: d9bc b9d1 39d5 0e3f 3ccc 2aa3 5b5d 0d3f
00000280: a0db 9b74 7de5 0b3f 03eb 0c46 9f6d 0a3f
00000290: 67fa 7d17 c1f5 083f ca09 efe8 e27d 073f
000002a0: 2d19 60ba 0406 063f 9128 d18b 268e 043f
000002b0: f437 425d 4816 033f 5847 b32e 6a9e 013f
000002c0: bb56 2400 8c26 003f 3ccc 2aa3 5b5d fd3e
000002d0: 03eb 0c46 9f6d fa3e ca09 efe8 e27d f73e
000002e0: 9128 d18b 268e f43e 5847 b32e 6a9e f13e
000002f0: 3ccc 2aa3 5b5d ed3e ca09 efe8 e27d e73e
00000300: 5847 b32e 6a9e e13e ca09 efe8 e27d d73e
00000310: ca09 efe8 e27d c73e 0000 0000 0000 0000

current_density f8 [100]
-6.068078876100203e-05 -7.752943466486122e-05 -7.824062288422477e-05 -7.769209546377793e-05 -7.713645903859174e-05 -7.666289776574136e-05 -7.741159444820582e-05 -7.710660121868652e-05
-7.793882870683819e-05 -7.834339878131346e-05 -7.757420446851726e-05 -7.656751861882193e-05 -7.652281651997293e-05 -7.745675355450237e-05 -7.746430264048747e-05 -7.737352742044685e-05
-7.709949221394719e-05 -7.518410629654706e-05 -7.483581584292486e-05 -7.434979688557888e-05 -7.452136086662154e-05 -7.516579214624239e-05 -7.507178402166554e-05 -7.514299255247122e-05
-7.461225457007448e-05 -7.453801624915369e-05 -7.580296208530806e-05 -7.544036899119836e-05 -7.479906905890318e-05 -7.422059918754232e-05 -7.499460054163847e-05 -7.402095463777928e-05
-7.54104942450914e-05 -7.435495937711578e-05 -7.463867637102234e-05 -7.550883547731889e-05 -7.42781144211239e-05 -7.498478334461747e-05 -7.562423832092078e-05 -7.462713270142181e-05
-7.481585985104943e-05 -7.581474272173324e-05 -7.574952606635071e-05 -7.483001015572106e-05 -7.610754908598512e-05 -7.562364590385918e-05 -7.150446851726474e-05 -7.15534529451591e-05
-7.110309749492214e-05 -7.183661137440758e-05 -7.188928571428572e-05 -7.145969871360867e-05 -7.143534190927556e-05 -7.246866960054164e-05 -7.410561949898442e-05 -7.49035375761679e-05
-7.485675355450237e-05 -7.412569397427217e-05 -7.500357142857143e-05 -7.559380501015572e-05 -7.562447528774543e-05 -7.632256262694652e-05 -7.474619160460393e-05 -7.527356127285036e-05
-7.421541976980365e-05 -7.508026404874746e-05 -7.546208530805687e-05 -7.460152335815843e-05 -7.506059580230196e-05 -7.524895057549086e-05 -7.474847664184158e-05 -7.56239336492891e-05
-7.511602911306702e-05 -7.567388287068382e-05 -7.529737643872715e-05 -7.518529113067028e-05 -7.624500677048071e-05 -7.594742721733243e-05 -7.64658259986459e-05 -7.692621868652675e-05
-7.54616452268111e-05 -7.645020311442113e-05 -7.576696005416385e-05 -7.63178740690589e-05 -7.658077183480027e-05 -7.7841807718348e-05 -7.799431279620853e-05 -7.808029790115098e-05
-7.804267095463778e-05 -7.748539268788084e-05 -7.839490521327014e-05 -7.87554163845633e-05 -7.901125592417062e-05 -7.885380839539607e-05 -7.992435680433311e-05 -7.789989844278944e-05
-7.69986797562627e-05 -7.826516587677725e-05 -7.788180433310765e-05 -7.709238320920784e-05
00000000: 5b4c 9a06 70d0 0fbf 82ba a28b e952 14bf
00000010: 55a8 80aa a382 14bf 6913 6509 d45d 14bf
00000020: 67b8 8d46 8a38 14bf dbbb 0c8e c218 14bf
00000030: 20c6 e110 014b 14bf 0d12 7952 8936 14bf
00000040: cd73 ace1 626e 14bf 899d ad57 8989 14bf
00000050: 877e 50af ea55 14bf 3d1a 20f4 5b12 14bf
00000060: 382c 37fa 5b0f 14bf a758 bbe4 084e 14bf
00000070: be8d f695 8a4e 14bf 2ec4 5214 7348 14bf
00000080: f84b bd30 0f36 14bf 0a54 631c 85b5 13bf
00000090: 760a c686 259e 13bf c43d cbc8 877d 13bf
000000a0: c783 293b 0b89 13bf d334 e779 4ab4 13bf
000000b0: b980 cc6d fbad 13bf 0eb4 3ac8 c2b2 13bf
000000c0: d7c3 e5c5 248f 13bf f827 4f5e 298a 13bf
000000d0: 493e eef8 0cdf 13bf 095d a3ab b7c6 13bf
000000e0: 8755 b538 ae9b 13bf c10e 4f2f dc74 13bf
000000f0: d287 436d cda8 13bf ea13 4b51 7667 13bf
00000100: 3081 1d6d b6c4 13bf 54fb ab79 e07d 13bf
00000110: a6fd 34b2 ea90 13bf 57b5 6dea 4fcb 13bf
00000120: 6d30 fb49 b878 13bf b451 c6c4 24a8 13bf
00000130: b191 8085 0ed3 13bf 8476 9c60 2490 13bf
00000140: baa5 64af ce9c 13bf 6cb2 b75c d7df 13bf
00000150: 297a d5f2 76db 13bf e45b 17c9 c19d 13bf
00000160: 5bee b9bc 7df3 13bf 3041 0658 04d3 13bf
00000170: 726b 4a6a 95be 12bf 0439 15f6 dec1 12bf
00000180: 3ec1 dde9 a5a3 12bf d555 0696 dfd4 12bf
00000190: 73b2 3886 68d8 12bf 6ba7 9c46 94bb 12bf
000001a0: a2ec 40d4 f1b9 12bf 3c42 8043 4aff 12bf
000001b0: e76b 4ad9 246d 13bf c030 1bfa b0a2 13bf
000001c0: 348e cd3b 8d9f 13bf 2447 c4b9 7d6e 13bf
000001d0: ec4a a48b 67a9 13bf 56d0 62ae 03d1 13bf
000001e0: b27e b197 12d3 13bf 5fab 47a4 eb01 14bf
000001f0: e976 34cb 2198 13bf 95d0 88ef 85bb 13bf
00000200: b11b fd33 8374 13bf 5234 5a1d 8dae 13bf
00000210: cb7d 02c1 2cc8 13bf b744 8769 6c8e 13bf
00000220: 175d 7d37 3bad 13bf 4cf3 8a20 dfb9 13bf
00000230: 70ad e70c 4998 13bf b0ce 8a49 09d3 13bf
00000240: 3dca c48d f3b0 13bf c685 8a68 63d6 13bf
00000250: 5ddb bd13 1fbd 13bf 0df5 5777 99b5 13bf
00000260: 7719 043e b7fc 13bf 7aee 4cdd bee8 13bf
00000270: 0c85 40e3 880b 14bf 71ea b45f 6e2a 14bf
00000280: c90e 8331 25c8 13bf 5ea0 147d 7c0a 14bf
00000290: 5dbb 5276 a2dc 13bf d1c7 c817 9b01 14bf
000002a0: e5bc 62a4 3f13 14bf aa8c da12 e067 14bf
000002b0: 7381 4717 1c72 14bf 7526 c54d e177 14bf
000002c0: 8493 b5e0 5a75 14bf fdf2 f8e8 f44f 14bf
000002d0: a48e 5c37 fe8c 14bf 5dbb 42c0 2fa5 14bf
000002e0: dc8a 740a 5bb6 14bf 0490 e61c caab 14bf
000002f0: 8e74 98fe a1f3 14bf 58c9 8f10 c66b 14bf
00000300: ca94 dc3e 4b2f 14bf 9faf b94f 4984 14bf
00000310: a261 d335 8f6a 14bf e285 010f 9535 14bf

resistivity f8 [100]
-0.0 -0.036120914326100116 -0.07158516801238464 -0.10813586828480114 -0.1452197366684596 -0.1826459831871806 -0.21705539749507133 -0.2542329471294641
-0.2874494383603406 -0.3217106609821415 -0.36100068140781993 -0.4023217063287753 -0.43915279567100063 -0.47001250638562814 -0.5061179873248425 -0.54290546663258
-0.5811574601833933 -0.6332106809382094 -0.6735787222103676 -0.7156475136067061 -0.7515788854936909 -0.7823920128250643 -0.8206751748751442 -0.8571655367927132
-0.900795961762655 -0.9392636832189054 -0.9605335167160076 -1.002271341294648 -1.0483038742381081 -1.094205501439332 -1.1202542771298205 -1.1728227028483214
-1.1883477366123594 -1.2428804345322053 -1.2756758682888523 -1.2980625609602534 -1.3572722895268399 -1.3818278304969402 -1.407174431365044 -1.4635016068606892
-1.4972408646272595 -1.5144521057061322 -1.5527256331974082 -1.6092295676890527 -1.6190128369674321 -1.6664038280808189 -1.8015652695019493 -1.8394695957308766
-1.890506039333382 -1.9101857210601567 -1.9087860998105957 -1.8810719559311786 -1.8425109706808838 -1.7775953084964167 -1.7005394986185403 -1.6450371096964522
-1.6086546527212529 -1.5867403665266375 -1.5308310600628217 -1.481832574457233 -1.4442008120833172 -1.3942992857407643 -1.3862386599907213 -1.3393231928626388
-1.3206850093798816 -1.2681729279177063 -1.2246457786449128 -1.201234051518514 -1.1565782972779293 -1.1164676899265158 -1.0864781678463324 -1.0368695477742993
-1.0065990003646015 -0.9621719275818783 -0.9297913817619088 -0.8939304031944247 -0.8447764158686788 -0.8112131212011502 -0.7690901738762415 -0.7280831204487399
-0.7051031967087772 -0.6593548631336346 -0.6283395705692032 -0.5871094500869052 -0.5485255633074931 -0.5036634951205633 -0.4667730449753424 -0.4303929379202557
-0.3947170741758692 -0.36141445118060717 -0.3214992930593851 -0.28446897453817144 -0.2481043775557321 -0.21308551540629966 -0.17519278097766325 -0.14379654522076682
-0.10910969160036754 -0.07156271978492976 -0.03595748828959732 -0.0
00000000: 0000 0000 0000 0080 43e5 76c3 707e a2bf
00000010: 5dea 7dd3 6753 b2bf f7ca ced1 caae bbbf
00000020: 22c5 dc71 8f96 c2bf 4371 448e f160 c7bf
00000030: b1af d4a4 78c8 cbbf d626 5f44 5a45 d0bf
00000040: 01b8 4054 9265 d2bf 8257 ec4f e896 d4bf
00000050: 44bd 1e9a a21a d7bf daca c98a a3bf d9bf
00000060: 98a6 d653 141b dcbf efc8 e855 af14 debf
00000070: 0448 6f59 1e32 e0bf a935 0049 7b5f e1bf
00000080: 140d aa87 d798 e2bf a470 c30b 4343 e4bf
00000090: 9599 e5f6 f48d e5bf cff1 4c9d 95e6 e6bf
000000a0: aee7 b129 ef0c e8bf 4887 77f9 5a09 e9bf
000000b0: 584a 9795 f842 eabf 3d0e 796b e66d ebbf
000000c0: 8976 840d 52d3 ecbf ccdc 37b6 720e eebf
000000d0: 583a 20c9 b0bc eebf d041 89ac 4d09 f0bf
000000e0: dff6 8148 dac5 f0bf 3a90 bca0 dd81 f1bf
000000f0: 90a0 b7bf 8fec f1bf 7ed6 0bbd e1c3 f2bf
00000100: 4a69 90ea 7803 f3bf 2877 3298 d6e2 f3bf
00000110: 698d 6919 2b69 f4bf ddc7 773f ddc4 f4bf
00000120: a08e f425 63b7 f5bf e9fd ca7f f71b f6bf
00000130: 26af 2756 c983 f6bf 02c3 31a9 806a f7bf
00000140: 05f1 3cd6 b2f4 f7bf d8db 9521 323b f8bf
00000150: 71e6 63d5 f6d7 f8bf f2b0 cf80 67bf f9bf
00000160: d144 2901 7ae7 f9bf c894 780f 97a9 fabf
00000170: beec a11a 36d3 fcbf 4568 baab 776e fdbf
00000180: e33c bd42 833f febf 34d5 13e7 1e90 febf
00000190: 35ef 1b4b 638a febf ca5a 42e8 de18 febf
000001a0: 9f87 99c8 ec7a fdbf 043e 38c7 0771 fcbf
000001b0: 44f7 c1e7 6835 fbbf 5ca4 ad6e 1252 fabf
000001c0: b1ef 3fa9 0cbd f9bf 7199 d7dd 4963 f9bf
000001d0: b9bb aab5 487e f8bf 910f d712 96b5 f7bf
000001e0: 6312 8c4f 721b f7bf df7b 91c4 0c4f f6bf
000001f0: b4c6 d196 082e f6bf cbe8 0128 de6d f5bf
00000200: 2baa b99a 8621 f5bf 0d44 31b2 6f4a f4bf
00000210: 006e 072c 2698 f3bf 4bd1 6132 4138 f3bf
00000220: 3527 a13e 5881 f2bf 9f66 7439 0ddd f1bf
00000230: ea7c 6bee 3662 f1bf f58a de85 0497 f0bf
00000240: 3d09 ac8d 071b f0bf 86fd 42c8 1cca eebf
00000250: 3ea4 18db d9c0 edbf 41d8 d3ee 139b ecbf
00000260: 7ad1 d28c 6808 ebbf 0aa4 3438 75f5 e9bf
00000270: 2e26 0fff 629c e8bf 5a1a e3f8 744c e7bf
00000280: 856a 4594 3490 e6bf b2c2 b35e 6f19 e5bf
00000290: c213 4c96 5b1b e4bf 3677 e9c1 99c9 e2bf
000002a0: 039f 6d7b 858d e1bf 856b f7e7 021e e0bf
000002b0: 1fb3 b40c 9cdf ddbf b2ff 32d2 8e8b dbbf
000002c0: c485 3067 0b43 d9bf fbd6 0714 6a21 d7bf
000002d0: b323 58c5 7193 d4bf 008f 975b bd34 d2bf
000002e0: bf53 cc5d e2c1 cfbf 2aef f5db 6246 cbbf
000002f0: 69ad 6590 b76c c6bf 1120 80d9 ec67 c2bf
00000300: 50a8 19dd 9cee bbbf 4ece 1635 ef51 b2bf
00000310: 2f10 8018 0569 a2bf 0000 0000 0000 0080
